assets/building_damage_model.tflite (tflite, 76748 bytes, 6 tensors)

sequential_13/dense_40/MatMul;sequential_13/dense_40/Relu;sequential_13/dense_40/BiasAdd f4 [128]
-0.27015036 0.40774587 -0.17748608 0.13320461 0.017851047 -0.44471943 -0.75220245 -1.1456966
-0.1540441 -1.2703142 -0.935782 -0.5373186 -0.6824541 -1.0795034 -0.22697961 0.56486607
-0.36631334 -0.6061001 0.60657257 -0.7167804 0.03518485 0.48529977 -0.7666071 -0.60800594
0.16747168 -1.1569215 -1.8735595 0.2962627 -0.8989454 -0.7523843 -0.3336894 -0.64256835
0.20609282 -1.1347604 0.33440536 -0.6975519 -0.12981758 -0.07902647 -0.34381783 -0.33589628
-0.45768434 -1.1827807 -0.3600712 -0.21139969 -0.8191172 0.1475647 -0.4701768 0.35520637
-0.8637069 0.030358879 0.29263344 -0.8500971 -0.16411458 -0.813771 -0.39761135 -0.72906315
-0.3700285 -1.0000204 -0.04998043 -1.623316 -1.9877636 -0.9781945 -0.22302732 0.638783
-0.3522421 -0.72648376 0.34900033 0.018418567 0.22893459 0.6459553 -0.32386073 0.6946272
-0.36821344 -0.88323754 -1.9602878 -1.0835965 -0.817011 -1.2692364 -1.3413222 -0.7129688
-0.8056024 -0.21098505 -0.31584463 -0.77967674 -1.3498807 -1.00552 0.77795887 -0.8101103
-1.2412521 -0.70736116 0.22067651 0.34727648 0.6853018 -0.1857267 0.5001428 -0.7011776
-0.7620099 0.33727488 -1.5854484 -0.60784036 0.31541562 -0.872178 -0.63412344 -0.029174311
0.5516307 -0.31454182 -0.4622325 -1.8650414 0.68166375 -1.0433398 -1.900475 -0.13518083
-0.99192137 -0.32560673 0.3845901 -0.6614825 -0.27312648 0.19945279 -0.26279834 -0.34929767
0.5251352 -0.9111008 0.12172326 0.52307856 -1.5947326 -0.55406773 -0.54548556 -1.0143433
00000000: 2651 8abe 11c4 d03e e9be 35be ca66 083e
00000010: 5c3c 923c 44b2 e3be 5790 40bf 30a6 92bf
00000020: bdbd 1dbe a899 a2bf 698f 6fbf b68d 09bf
00000030: 50b5 2ebf 2b2d 8abf 586d 68be 109b 103f
00000040: 6c8d bbbe 6029 1bbf 5748 1b3f ec7e 37bf
00000050: fd1d 103d 3679 f83e 5d40 44bf 47a6 1bbf
00000060: b27d 2b3e 0116 94bf ccd0 efbf bfaf 973e
00000070: 4921 66bf 429c 40bf 56d9 aabe 5c7f 24bf
00000080: ff09 533e d43f 91bf 2e37 ab3e c392 32bf
00000090: e6ee 04be a1d8 a1bd e408 b0be 99fa abbe
000000a0: 9a55 eabe 5c65 97bf 415b b8be 2979 58be
000000b0: aab1 51bf 331b 173e 03bb f0be 9cdd b53e
000000c0: e51b 5dbf 2fb3 f83c 0dd4 953e f79f 59bf
000000d0: a70d 28be 4c53 50bf b793 cbbe e2a3 3abf
000000e0: 6074 bdbe ab00 80bf 48b8 4cbd d2c8 cfbf
000000f0: 0a6f febf f46a 7abf 4661 64be 4887 233f
00000100: 1459 b4be d7fa 39bf 2cb0 b23e 89e2 963c
00000110: d46d 6a3e 545d 253f 13d1 a5be 17d3 313f
00000120: 7986 bcbe db1b 62bf b6ea fabf 4ab3 8abf
00000130: a227 51bf 5776 a2bf 72b0 abbf 2085 36bf
00000140: f53b 4ebf 770c 58be 63b6 a1be e598 47bf
00000150: e4c8 acbf e1b4 80bf 5028 473f 6363 4fbf
00000160: 59e1 9ebf 9f15 35bf 06f9 613e 39ce b13e
00000170: f06f 2f3f 242f 3ebe 5c09 003f 6080 33bf
00000180: 1513 43bf 4baf ac3e f9ef cabf 6d9b 1bbf
00000190: 287e a13e 0f47 5fbf ea55 22bf f7fe eebc
000001a0: ab37 0d3f a00b a1be bda9 ecbe adb9 eebf
000001b0: 8481 2e3f 298c 85bf c442 f3bf d86c 0abe
000001c0: 8fee 7dbf edb5 a6be fee8 c43e eb56 29bf
000001d0: 3cd7 8bbe 5a3d 4c3e 818d 86be 25d7 b2be
000001e0: 436f 063f e73d 69bf 0b4a f93d 7ae8 053f
000001f0: 3320 ccbf 62d7 0dbf f1a4 0bbf 00d6 81bf

sequential_13/batch_normalization_12/batchnorm/mul_1;sequential_13/batch_normalization_12/batchnorm/add_1;sequential_13/dense_40/MatMul;sequential_13/dense_40/Relu;sequential_13/dense_40/BiasAdd f4 [128, 128]
5.231827 -1.7009388 -3.312296 -5.6122174 -2.675309 2.9016218 3.5369015 -0.08597796
-1.4128942 3.3117986 -4.7179723 7.1557183 -4.309116 2.3151026 -0.17789954 -0.018422471
-3.0812678 -1.9210173 6.2210593 1.4813863 -1.3577173 0.11916306 2.2902489 -6.507286
0.14282937 -0.42327452 -0.0029733386 -0.9472233 1.7107668 -2.947221 0.00015213658 -2.536224
-0.00023378817 1.7718393 1.0082239 -2.5922415 -18.45791 -1.4933997 1.360216 2.5292299
-0.3992834 -0.53456384 -0.41337764 3.8095765 4.9627347 1.8913907 -3.8530502 -0.018919507
9.291364 5.319923 -0.5522037 0.00305347 0.0086650085 -1.5213562 -3.9743252 2.3852034
10.001913 5.6207976 2.5952804 2.7685874 5.1083956 -6.862127 -0.841213 3.6354463
-0.011357009 -0.005176452 0.92978233 -0.47431847 -2.2713807 -4.253742 -2.9378078 -0.00033990984
6.423126 -4.187262 0.00051326386 1.7736866 0.2503468 0.015927942 -0.9246222 -0.019724736
-5.3831964 -3.0266638 -0.00082893 -0.7692077 -1.9758862 -5.357069 -1.911615 1.9736096
2.1549957 -4.940102 -3.1083755 0.27566636 -1.7865151 -4.6282825 2.2869835 -0.0008338011
0.35311714 5.368482 6.9441185 1.9782476 -0.006917174 -2.623329 -0.6988949 0.0041558617
0.0017169558 -0.2812952 -2.6593363 -3.4043353 -0.42078725 7.5641794e-05 -2.661841 0.0063900845
2.8127809 10.242371 -0.00051917345 -3.9032507 0.24476244 6.111256 -8.771744 1.2901621
-4.582852 0.00068991067 1.117164 -1.0327896 -8.257405 0.004750499 -2.4555492 0.9955772
-0.65599453 -3.0543597 -2.819411 2.1363537 -0.598285 4.187385 6.3994627 3.0320954
5.6955237 -2.623768 3.9309738 -5.0062776 -1.7243383 0.69479495 -1.8329324 0.0005314659
5.116831 5.6815968 0.25508404 2.791224 -2.013476 1.4499482 2.587587 4.445871
-2.2473204 1.0635003 0.0016490434 0.4304523 0.3202193 10.443475 -0.0005982107 -3.6339512
-0.00067960256 2.4412577 -1.936341 -1.1618453 -3.329251 2.568961 -5.5946574 1.2067217
1.9085218 4.57486 -0.293239 1.3548682 2.682704 3.187528 -3.980994 -0.035211317
-2.3315108 -1.7203988 3.1213276 -0.0077606137 -0.000732864 5.2236567 2.744206 16.42154
-3.641609 1.0035955 -2.2133312 -2.5679471 -2.025179 -1.3602593 -0.16623296 3.598109
-0.01648297 -0.00025185334 8.574244 1.2391312 3.979939 5.074316 1.5053697 -0.00070881663
9.862871 4.92461 -0.0038583165 5.5176115 0.65090114 -0.11968116 -8.294099 -0.03617995
2.3897562 1.6047171 -0.0010787236 0.88293046 -3.0234294 3.3067708 -2.1466055 -0.6124902
-0.89884335 -1.4620284 -1.5126526 -0.83206403 -6.973947 1.1883942 0.49413908 0.00095603144
0.3505465 0.3914008 0.4254349 -0.35460868 -0.026786832 -1.2054741 -4.375818 -0.0005005703
0.0062779547 -0.36422312 -1.7241697 -2.5272818 -2.2534797 -0.0015805231 -7.252613 -0.00081077375
2.8741555 -1.5453682 0.001208126 -2.349858 6.9654393 2.8498986 0.0019335377 -0.9793536
1.3856696 0.0010623314 0.6197149 -1.5241377 0.6613562 -0.0032884101 -2.145035 7.968149
00000000: 206b a740 5db8 d9bf a8fc 53c0 4997 b3c0
00000010: 4338 2bc0 2cb4 3940 985c 6240 3615 b0bd
00000020: b8d9 b4bf 82f4 5340 a1f9 96c0 a5fb e440
00000030: 47e4 89c0 a42a 1440 4c2b 36be b9ea 96bc
00000040: 7e33 45c0 e5e3 f5bf eb12 c740 119e bd3f
00000050: aec9 adbf c30b f43d 7093 1240 b03b d0c0
00000060: dd41 123e 70b7 d8be 58dc 42bb 3a7d 72bf
00000070: 68fa da3f 459f 3cc0 da86 1f39 7e51 22c0
00000080: 0925 75b9 a1cb e23f 7b0d 813f 49e7 25c0
00000090: cda9 93c1 b927 bfbf 8f1b ae3f e7de 2140
000000a0: e06e ccbe 2dd9 08bf 3ca6 d3be 1ad0 7340
000000b0: b9ce 9e40 1719 f23f 6098 76c0 15fd 9abc
000000c0: 6da9 1441 cf3c aa40 395d 0dbf ba1c 483b
000000d0: aef7 0d3c cdbb c2bf 585b 7ec0 2ca7 1840
000000e0: d607 2041 93dd b340 1319 2640 8930 3140
000000f0: fa77 a340 8b96 dbc0 bc59 57bf 27ab 6840
00000100: c012 3abc 3a9f a9bb 3706 6e3f dfd9 f2be
00000110: 4d5e 11c0 a81e 88c0 0b05 3cc0 ed35 b2b9
00000120: 408a cd40 0dfe 85c0 8e8c 063a 2a08 e33f
00000130: 752d 803e 517b 823c 0ab4 6cbf c595 a1bc
00000140: 2543 acc0 dcb4 41c0 8d4c 59ba ccea 44bf
00000150: d7e9 fcbf 1c6d abc0 cdaf f4bf 3d9f fc3f
00000160: 73eb 0940 5115 9ec0 a0ef 46c0 2424 8d3e
00000170: 87ac e4bf e41a 94c0 f05d 1240 7293 5aba
00000180: c5cb b43e 9bca ab40 3836 de40 3837 fd3f
00000190: 76a9 e2bb 9fe4 27c0 c7ea 32bf e52d 883b
000001a0: 7a0b e13a ed05 90be 9132 2ac0 a1e0 59c0
000001b0: 6d71 d7be e1a1 9e38 9a5b 2ac0 ea63 d13b
000001c0: 9a04 3440 c0e0 2341 2419 08ba dcce 79c0
000001d0: 01a3 7a3e 698f c340 1059 0cc1 0824 a53f
000001e0: b9a6 92c0 1fdb 343a 3bff 8e3f 7332 84bf
000001f0: 551e 04c1 13aa 9b3b b827 1dc0 26de 7e3f
00000200: 42ef 27bf a17a 43c0 3b71 34c0 05ba 0840
00000210: 3529 19bf 0fff 8540 66c8 cc40 da0d 4240
00000220: bb41 b640 d1eb 27c0 1395 7b40 6d33 a0c0
00000230: 1eb7 dcbf 15de 313f 879d eabf 1352 0b3a
00000240: 14bd a340 a4cf b540 609a 823e 6aa3 3240
00000250: cadc 00c0 e797 b93f 079b 2540 9344 8e40
00000260: 19d4 0fc0 c720 883f b724 d83a 3e64 dc3e
00000270: c9f3 a33e 7918 2741 3ed1 1cba a892 68c0
00000280: 5b27 32ba 913d 1c40 06da f7bf 59b7 94bf
00000290: 7312 55c0 db69 2440 6f07 b3c0 db75 9a3f
000002a0: 714a f43f 4165 9240 6c23 96be 526c ad3f
000002b0: 6cb1 2b40 7500 4c40 9bc8 7ec0 be39 10bd
000002c0: 7937 15c0 0736 dcbf d5c3 4740 bf4c febb
000002d0: ac1d 40ba 3228 a740 12a1 2f40 505f 8341
000002e0: 1f10 69c0 d175 803f 38a7 0dc0 3f59 24c0
000002f0: 889c 01c0 fa1c aebf f938 2abe 6b47 6640
00000300: 4b07 87bc 2f0b 84b9 1a30 0941 da9b 9e3f
00000310: 52b7 7e40 cc60 a240 f4af c03f e1cf 39ba
00000320: 52ce 1d41 6896 9d40 cfdb 7cbb 4690 b040
00000330: 75a1 263f 651b f5bd a1b4 04c1 6d31 14bd
00000340: c4f1 1840 5f67 cd3f f563 8dba bb07 623f
00000350: de7f 41c0 22a2 5340 fc61 09c0 28cc 1cbf
00000360: 991a 66bf bf23 bbbf 9a9e c1bf 2602 55bf
00000370: 932a dfc0 4d1d 983f ccff fc3e 2f9e 7a3a
00000380: d57a b33e b065 c83e 9ad2 d93e 458f b5be
00000390: 0f70 dbbc fa4c 9abf b306 8cc0 b438 03ba
000003a0: 4db7 cd3b 747b babe 98b1 dcbf fcbe 21c0
000003b0: 0339 10c0 8e29 cfba 6815 e8c0 1b8a 54ba
000003c0: 2af2 3740 a0ce c5bf fb59 9e3a 1364 16c0
000003d0: e1e4 de40 bd64 3640 c26e fd3a ebb6 7abf
000003e0: 9f5d b13f ed3d 8b3a a3a5 1e3f f216 c3bf
000003f0: a44e 293f 5e82 57bb 4148 09c0 14fb fe40

sequential_13/dense_41/BiasAdd/ReadVariableOp f4 [5]
-1.2029805 -0.7296442 0.037373614 0.39640152 0.80848783
00000000: 44fb 99bf f6c9 3abf 1315 193d 24f5 ca3e
00000010: 0ff9 4e3f

sequential_13/dense_39/BiasAdd/ReadVariableOp f4 [128]
0.0 -0.13125367 0.3760138 -0.057687342 -0.031824563 0.0 0.0 0.01996426
0.07575822 -0.038858548 0.017647581 0.0 -0.0637945 -0.069595106 0.0 -0.07534247
0.06157473 0.0 -0.012618048 0.0 0.14176302 -0.0038928022 -0.14268607 0.0
-0.0820405 -0.11364479 2.1134782 -0.083307266 -0.25633025 0.23462097 2.6208336 0.0007083845
1.0420907 -0.023974946 -0.1360859 0.026807591 0.0 0.0061604907 -0.042592008 -0.20511974
-0.12367602 0.01219567 -0.03701789 -0.008615262 -0.04535943 0.070163496 -0.044549175 -0.060770184
0.0 0.19324638 -0.13635659 -0.4205329 1.167434 -0.023717579 -0.028542107 -0.04184268
0.0 0.049010456 0.0 0.019436074 -0.10285181 0.0 -0.009585535 0.032121632
-0.15518624 3.3433099 0.0 0.06558616 0.108698554 0.0 0.0 3.2545006
-0.019088635 0.0 0.60810554 -0.009017309 0.0 0.060979065 0.0 -0.21706676
0.034375817 0.0 2.7480724 -0.14094967 0.0021362 -0.06549197 1.0024164 -0.32009506
0.021858124 -0.029718067 -0.13149546 0.86602014 0.0 0.0 -0.15071014 1.963457
-0.08899576 0.0 0.0 -0.078032255 -0.23053315 0.0 0.0 0.5920292
1.8586519 0.22873633 0.034007587 0.5941033 -0.04139427 2.5058172 -0.11767496 0.35859543
-0.021979753 0.0 2.5118253 -0.09631183 0.0 -0.08052922 0.0 -0.10427335
-0.067376904 2.157864 -0.010067366 0.0 0.0 -0.26171616 0.0 0.0
00000000: 0000 0000 5d67 06be e184 c03e 9049 6cbd
00000010: 795a 02bd 0000 0000 0000 0000 168c a33c
00000020: 2027 9b3d 242a 1fbd a991 903c 0000 0000
00000030: b1a6 82bd e187 8ebd 0000 0000 274d 9abd
00000040: c935 7c3d 0000 0000 eebb 4ebc 0000 0000
00000050: 532a 113e 621e 7fbb 4c1c 12be 0000 0000
00000060: da04 a8bd 9abe e8bd 3a43 0740 009d aabd
00000070: b83d 83be 7b40 703e bdbb 2740 e1b2 393a
00000080: 3a63 853f 1b67 c4bc 1a5a 0bbe 989b db3c
00000090: 0000 0000 f1dd c93b f574 2ebd e90a 52be
000000a0: da49 fdbd 59d0 473c 12a0 17bd 0727 0dbc
000000b0: cfca 39bd e1b1 8f3d 3279 36bd 28ea 78bd
000000c0: 0000 0000 61e2 453e 10a1 0bbe 1750 d7be
000000d0: 7a6e 953f 5e4b c2bc 23d1 e9bc 3b63 2bbd
000000e0: 0000 0000 30bf 483d 0000 0000 6738 9f3c
000000f0: f8a3 d2bd 0000 0000 a60c 1dbc f991 033d
00000100: 24e9 1ebe caf8 5540 0000 0000 0952 863d
00000110: 599d de3d 0000 0000 0000 0000 bd49 5040
00000120: c55f 9cbc 0000 0000 ceac 1b3f 56bd 13bc
00000130: 0000 0000 2fc5 793d 0000 0000 c046 5ebe
00000140: a8cd 0c3d 0000 0000 6be0 2f40 1c55 10be
00000150: 7dff 0b3b a720 86bd 2e4f 803f 80e3 a3be
00000160: cf0f b33c 4e73 f3bc bfa6 06be 7fb3 5d3f
00000170: 0000 0000 0000 0000 c253 1abe 8f52 fb3f
00000180: 6943 b6bd 0000 0000 0000 0000 60cf 9fbd
00000190: e210 6cbe 0000 0000 0000 0000 3a8f 173f
000001a0: 4ee8 ed3f db39 6a3e 8a4b 0b3d 2717 183f
000001b0: 0a8d 29bd 4f5f 2040 92ff f0bd d299 b73e
000001c0: e20e b4bc 0000 0000 bfc1 2040 233f c5bd
000001d0: 0000 0000 81ec a4bd 0000 0000 448d d5bd
000001e0: e7fc 89bd 721a 0a40 98f1 24bc 0000 0000
000001f0: 0000 0000 a9ff 85be 0000 0000 0000 0000

sequential_13/dense_39/MatMul f4 [128, 10]
-0.10021677 -0.18914585 -0.16026059 -0.05586852 -0.008992612 0.16713004 -0.011455923 -0.122222096
0.010125443 -0.03811778 -0.072963186 0.016786316 -0.22274342 -0.18479969 0.29732895 0.06664735
0.1864582 -0.1267385 0.013970982 0.0009803814 0.31938073 -0.020479802 -0.042030577 -0.083964065
-0.030134493 0.247674 -1.2233156 0.5243378 0.0784441 0.2007913 -0.26317182 -0.17673163
-0.1298607 0.10642144 -0.15619777 0.089402236 -0.037050817 -0.15724465 0.04587447 0.003583296
-0.22352603 -0.19271271 -0.1174126 0.09743576 0.041078538 -0.22902921 0.085754134 0.10855169
0.0077413153 -0.084934086 -0.06337251 -0.20157075 -0.13195987 0.048097715 0.05967252 0.16926275
-0.016140595 0.0068163425 0.010027051 0.02325876 -0.02761875 -0.034705684 -0.11972075 -0.18211216
-0.064914376 0.10130273 0.15554066 -0.1852453 -0.09221033 -0.19286484 0.07266588 -0.2823247
-0.02122712 -0.017438598 -0.09944603 0.1505461 0.26318088 -0.3920565 -0.2640962 0.17044346
-0.13834111 -0.0033029774 -0.047360584 -0.3011668 0.045766447 -0.0166901 -0.052321363 0.028539358
0.21895304 0.050423145 0.08710497 -0.006036261 -0.16052848 -0.04931739 -0.11869726 -0.019994207
-0.17987366 0.15043117 0.12363401 -0.16848353 -0.2666027 -0.3276915 -0.024672216 0.038833637
-0.20269398 -0.18550988 -0.009201581 -0.28157803 -0.070449196 -0.11597562 -0.14578584 -0.15183371
-0.021759942 -0.1954926 -0.0139556825 -0.05998203 -0.196405 -0.091124386 0.118823186 0.14351161
-0.41216978 -0.16522597 -0.060231615 -0.029790401 -0.14625579 -0.49594483 0.8314677 -0.2561919
-0.04995534 0.061522227 -0.5516549 -0.17247833 -0.015824145 -0.2661482 -0.24641915 -0.10746498
0.5059278 -0.31912005 0.05931147 -0.08459508 0.11517559 -0.13520573 -0.17749494 0.16822
-0.0717849 0.023126513 -0.06804092 -0.06387094 -0.12628922 0.013874158 3.123204 -0.030852327
0.00016497402 -0.34990183 -0.62291723 9.674983 -2.5329838 -0.16832465 -0.23044965 0.12630056
-0.088932015 -0.19364448 -0.002935081 -0.17975882 -0.17182402 -0.16621049 0.20665804 -0.3425831
-0.0039031156 -0.04380366 0.04538022 -0.14044565 -0.0292245 -0.056306586 -0.09242693 -0.05074428
0.02500783 -0.12483674 -0.0016566068 -0.017530099 -0.04882012 -0.275315 -0.04018356 -0.017774135
-0.012678205 -0.09224486 0.1656101 -0.32145265 0.020257978 0.11367136 -0.03150636 -0.17967698
-0.035806254 -0.19896655 -0.08591772 0.13101427 0.18126176 0.14226623 0.017027348 0.16224219
-0.71645766 -0.076017134 -0.058245778 -0.33689505 -0.12115433 -0.37589225 0.35629258 0.13577747
0.5935486 0.2389601 -0.42711538 -0.28773317 -0.112119846 -0.053963844 -0.24731174 0.4878741
1.815974 -1.0316205 0.053036693 -0.10628035 -0.21331805 -0.31526965 -0.085201055 0.08490548
-0.5893095 0.5217443 1.1059856 -0.64574236 -0.33427605 0.019511553 0.022179618 -0.18484442
-0.12595615 0.034221172 0.156559 0.07927711 0.087583736 -0.034972653 0.055985793 0.0018552095
-0.23920879 -0.00683779 -0.25237027 -0.00442033 0.21109459 -0.027059432 -0.21766719 -0.22119674
-0.13875765 0.06539788 -0.036568757 -0.15909596 -0.11463453 0.092644 -0.077736825 -0.3078921
00000000: 733e cdbd 73af 41be 5a1b 24be 64d6 64bd
00000010: c055 13bc 2324 2b3e a0b1 3bbc 944f fabd
00000020: 30e5 253c 6421 1cbd b96d 95bd 7583 893c
00000030: da16 64be 213c 3dbe 803b 983e 687e 883d
00000040: e6ee 3e3e bdc7 01be 8ce6 643c 2480 803a
00000050: df85 a33e 42c5 a7bc 4128 2cbd 5af5 abbd
00000060: 9ddc f6bc 419e 7d3e 9b95 9cbf 013b 063f
00000070: 4da7 a03d 3c9c 4d3e 75be 86be 23f9 34be
00000080: 34fa 04be 7cf3 d93d 4ff2 1fbe 8518 b73d
00000090: 99c2 17bd be04 21be dee6 3b3d bbd5 6a3b
000000a0: 02e4 64be 7b56 45be 0476 f0bd 668c c73d
000000b0: f841 283d a286 6abe dd9f af3d 5950 de3d
000000c0: dcaa fd3b ecf1 adbd 72c9 81bd 9068 4ebe
000000d0: 7d20 07be 1c02 453d 2c6b 743d 3753 2d3e
000000e0: 4839 84bc a05b df3b 8048 243c 2889 be3c
000000f0: b840 e2bc 8c27 0ebd 2730 f5bd 9c7b 3abe
00000100: d4f1 84bd ce77 cf3d 0d46 1f3e f2b0 3dbe
00000110: c5d8 bcbd 5c7e 45be d9d1 943d dd8c 90be
00000120: 7fe4 adbc 64db 8ebc 5caa cbbd c228 1a3e
00000130: a5bf 863e a1bb c8be 9e37 87be bb88 2e3e
00000140: 4ba9 0dbe c476 58bb 2cfd 41bd 8932 9abe
00000150: 9975 3b3d adb9 88bc ed4e 56bd 5fcb e93c
00000160: 3a35 603e 8088 4e3d 1764 b23d d4cb c5bb
00000170: 9461 24be 0801 4abd 8d17 f3bd e4ca a3bc
00000180: cd30 38be a10a 1a3e d433 fd3d f286 2cbe
00000190: 2680 88be 2ec7 a7be 631d cabc 0510 1f3d
000001a0: 038f 4fbe 4df6 3dbe 3ac2 16bc ff2a 90be
000001b0: ab47 90bd a084 edbd e248 15be 4c7a 1bbe
000001c0: e841 b2bc 362f 48be 60a6 64bc b8af 75bd
000001d0: 641e 49be 6c9f babd 9259 f33d b5f4 123e
000001e0: eb07 d3be ff30 29be 6db5 76bd 000b f4bc
000001f0: 14c4 15be 7bec fdbe 11db 543f 962b 83be
00000200: f89d 4cbd bbfe 7b3d 4139 0dbf 299e 30be
00000210: a3a1 81bc 9444 88be 4d55 7cbe 9916 dcbd
00000220: 7c84 013f b463 a3be 95f0 723d 2f40 adbd
00000230: 2ee1 eb3d 5f73 0abe 3cc1 35be dd41 2c3e
00000240: f603 93bd d073 bd3c 0a59 8bbd c4ce 82bd
00000250: f651 01be 7050 633c 93e2 4740 05be fcbc
00000260: e0fc 2c39 5526 b3be 8177 1fbf bbcc 1a41
00000270: 681c 22c0 4c5d 2cbe fefa 6bbe ef54 013e
00000280: fd21 b6bd bd4a 46be 7d5a 40bb b212 38be
00000290: a3f2 2fbe 1533 2abe 2a9e 533e 0d67 afbe
000002a0: 6acb 7fbb 776b 33bd 9ce0 393d fcd0 0fbe
000002b0: 3868 efbc bca1 66bd 554a bdbd 3cd9 4fbd
000002c0: 38dd cc3c 68aa ffbd 8022 d9ba 489b 8fbc
000002d0: 9bf7 47bd 16f6 8cbe 8497 24bd 109b 91bc
000002e0: 3fb8 4fbc e0ea bcbd b295 293e 7195 a4be
000002f0: 0ff4 a53c 88cc e83d d00c 01bd 3efd 37be
00000300: 94a9 12bd e3bd 4bbe a1f5 afbd 9b28 063e
00000310: af9c 393e 3dae 113e f07c 8b3c d122 263e
00000320: c569 37bf dfae 9bbd 2093 6ebd 827d acbe
00000330: c31f f8bd f374 c0be fb6b b63e 4009 0b3e
00000340: cdf2 173f f5b1 743e deae dabe c351 93be
00000350: 179f e5bd 3109 5dbd 4a3f 7dbe a2ca f93e
00000360: d671 e83f 240c 84bf 013d 593d 83a9 d9bd
00000370: 0c70 5abe 066b a1be e47d aebd ede2 ad3d
00000380: fddc 16bf 0991 053f f090 8d3f 5f4f 25bf
00000390: 3b26 abbe b1d6 9f3c 08b2 b53c db47 3dbe
000003a0: a6fa 00be 802b 0c3d 0151 203e 0a5c a23d
000003b0: 1a5f b33d 7c3f 0fbd 5c51 653d 802a f33a
000003c0: 26f3 74be 8a0f e0bb ad36 81be 6ad8 90bb
000003d0: 2e29 583e beab ddbc 26e4 5ebe 6681 62be
000003e0: 7c16 0ebe 53ef 853d 1fc9 15bd 0dea 22be
000003f0: 82c5 eabd 23bc bd3d 7c34 9fbd 09a4 9dbe

sequential_13/dense_41/MatMul f4 [5, 128]
0.024642799 -0.012454338 -0.25873613 -0.007113406 0.18771921 0.037032194 0.07983468 -0.64143074
-0.17812794 -0.5511592 0.08426277 0.094907574 -0.29351765 -0.49247965 0.0020369461 0.08118169
-0.30066633 0.14856012 0.03517309 -0.024206148 0.08642254 0.08399356 -0.35959348 -0.21533196
0.109695576 -0.0018433514 -0.15483718 0.07675311 0.06864972 0.16558878 0.11161653 -0.56234664
0.12490003 -0.052373376 0.06385895 0.09176134 -0.2347742 -0.026337005 -0.06115219 -0.15730242
0.030536124 -0.2929068 0.14184579 0.09767715 0.09559935 0.08294811 -0.10668789 0.063250676
-0.033021852 0.12688373 0.07629334 -0.6004945 0.20953241 -0.218442 -0.20305431 -0.50066
0.15604816 0.08115351 0.059789974 -0.37120095 -0.46472257 -0.1645555 -0.042483095 0.070498936
0.0038513262 0.076582626 0.22340088 0.18112364 0.046731066 0.15304716 0.14309354 -0.027849374
0.089615785 0.1868478 -0.46076402 -0.034790784 -0.053832732 -0.52937806 0.013637572 0.2031315
0.13419478 -0.14269924 0.2609227 -0.58057356 -0.49185622 -0.08935184 0.011462812 0.0253061
-0.09610536 -0.5067617 -0.024926074 0.002605103 0.03137986 0.07297604 0.02953448 0.1765311
0.08527557 -0.12842415 -0.5293159 0.00012866966 0.045792587 0.20782915 -0.6833108 -0.026062498
0.058025993 -0.078671835 -0.54402107 -0.35315248 0.12898195 -0.1516827 -0.50876206 0.094167404
-0.019015873 0.06370726 0.06457312 -0.078029744 0.08795447 0.007675373 -0.3890505 -0.4060602
0.17450756 0.07775857 -0.6188302 0.05805257 -0.5426278 0.13854662 -0.5289429 0.083996035
-0.08836666 -0.07833212 0.01646172 0.04739484 0.0452384 -0.10158154 0.097913265 -0.96089166
-0.03357735 -0.36669916 -0.045553114 0.0074269953 -0.4708135 -0.8390897 -0.010053804 -0.07471516
-0.010504082 0.058519203 -0.04695615 -0.124831915 -0.0676418 -0.08288773 -0.17436631 -0.03472982
0.08189961 -0.18390226 -0.38816568 0.039265353 -0.04375943 0.053236984 0.061000828 -0.44332886
0.07900099 -0.06707108 -0.0056151724 -0.023577172 -0.00056826614 -0.13330798 -0.06929149 0.075690284
-0.14487506 -0.39567629 0.0062695234 -0.05359147 -0.011981404 0.091215424 -0.18918133 0.023047246
-0.02111016 0.07267525 0.06489675 -1.0925487 0.10316156 -0.07382399 -0.042234834 -0.40732208
0.09449271 0.038931 0.0015764381 -0.29971203 -0.31530562 -0.14926016 -0.10295846 -0.0492703
-0.045694537 0.06512417 0.057877284 0.02535759 -0.022371711 0.091343425 0.07301992 -0.095389
-0.042469807 0.08688971 -0.38102806 -0.089407265 0.03326625 -0.46238 -0.016285071 0.033528462
0.13157928 -0.010705064 0.16855049 -1.2452142 -0.31439617 -0.16079724 -0.0029605683 -0.09597177
-0.11754206 -0.38784596 -0.027172616 -0.040036537 -0.017453773 0.0073734224 -0.02588653 0.022705402
-0.017059555 -0.1958984 -0.32612175 -0.10521007 0.049897652 0.13558732 -0.9797623 -0.0418373
-0.045716185 -0.14933905 -0.61120623 -0.3703548 0.08172193 -0.11524342 -0.31087002 0.06710712
0.027077723 0.039513618 -0.055272527 -0.09118077 0.0024317822 -0.08054392 -0.123379275 -0.22302097
0.14312059 0.044793192 -0.5161899 0.0009716712 -0.49804935 0.015997885 -0.34734228 -0.04105051
00000000: b2df c93c 480d 4cbc 1079 84be 9317 e9bb
00000010: 7739 403e 12af 173d 5d80 a33d ce34 24bf
00000020: 2c67 36be c518 0dbf f691 ac3d e75e c23d
00000030: f247 96be 4b26 fcbe 497e 053b 9642 a63d
00000040: f0f0 99be 2520 183e a811 103d f94b c6bc
00000050: 4dfe b03d d104 ac3d a31c b8be fb7f 5cbe
00000060: 13a8 e03d 9c9c f1ba a38d 1ebe bc30 9d3d
00000070: 3998 8c3d 1b90 293e 3597 e43d f3f5 0fbf
00000080: 96cb ff3d 7785 56bd 7bc8 823d 5fed bb3d
00000090: a668 70be b4c0 d7bc b87a 7abd e313 21be
000000a0: e526 fa3c e1f7 95be 0640 113e f50a c83d
000000b0: 98c9 c33d b3e0 a93d 2e7f dabd 9289 813d
000000c0: ec41 07bd cfed 013e af3f 9c3d 02ba 19bf
000000d0: aa8f 563e 42af 5fbe 78ed 4fbe 412b 00bf
000000e0: 17cb 1f3e d033 a63d 55e6 743d 0d0e bebe
000000f0: 1ef0 edbe 3d81 28be c102 2ebd bf61 903d
00000100: 8866 7c3b 5ad7 9c3d 33c3 643e 7a78 393e
00000110: 1369 3f3d 65b8 1c3e 1d87 123e 5f24 e4bc
00000120: 7b88 b73d 0855 3f3e 43e9 ebbe c880 0ebd
00000130: b67f 5cbd 5285 07bf 1f70 5f3c b401 503e
00000140: 5b6a 093e c01f 12be a997 853e 78a0 14bf
00000150: 94d4 fbbe 19fe b6bd 85ce 3b3c bd4e cf3c
00000160: e3d2 c4bd 23bb 01bf c431 ccbc 60ba 2a3b
00000170: 2b88 003d 7674 953d 4bf2 f13c 92c4 343e
00000180: f5a4 ae3d 9f81 03be 3f81 07bf 80eb 0639
00000190: 0291 3b3d 2ad1 543e 75ed 2ebf 0581 d5bc
000001a0: aaac 6d3d b31e a1bd f744 0bbf 67d0 b4be
000001b0: d813 043e b652 1bbe 3b3e 02bf d7da c03d
000001c0: 2dc7 9bbc f478 823d e93e 843d 0fce 9fbd
000001d0: 7921 b43d b281 fb3b a131 c7be 1fe7 cfbe
000001e0: 1cb2 323e e33f 9f3d a86b 1ebf 88c8 6d3d
000001f0: a8e9 0abf 2adf 0d3e cd68 07bf 1d06 ac3d
00000200: 94f9 b4bd 976c a0bd bbda 863c 1721 423d
00000210: e74b 393d fc09 d0bd c086 c83d fffc 75bf
00000220: 6788 09bd febf bbbe e795 3abd 275e f33b
00000230: 780e f1be 95ce 56bf b6b8 24bc 4304 99bd
00000240: 5019 2cbc d5b1 6f3d 1855 40bd e0a7 ffbd
00000250: c987 8abd 0bc1 a9bd 158d 32be db40 0ebd
00000260: fcba a73d e050 3cbe a7bd c6be b5d4 203d
00000270: 173d 33bd 060f 5a3d 01dc 793d 00fc e2be
00000280: 45cb a13d 905c 89bd 7bff b7bb ea24 c1bc
00000290: b2f7 14ba e381 08be b2e8 8dbd 8203 9b3d
000002a0: 215a 14be 1596 cabe 9370 cd3b bb82 5bbd
000002b0: a74d 44bc 27cf ba3d c0b8 41be 94cd bc3c
000002c0: 37ef acbc c3d6 943d 96e8 843d a3d8 8bbf
000002d0: 5e46 d33d 0831 97bd 6ffe 2cbd 858c d0be
000002e0: 6585 c13d 1d76 1f3d 7ca0 ce3a db73 99be
000002f0: bd6f a1be a8d7 18be e3db d2bd a7cf 49bd
00000300: 322a 3bbd d25f 853d bb10 6d3d b8ba cf3c
00000310: e144 b7bc 4312 bb3d 788b 953d 4f5b c3bd
00000320: d2f4 2dbd 3bf3 b13d 1c16 c3be 281b b7bd
00000330: 3142 083d 12bd ecbe 4568 85bc 2455 093d
00000340: b8bc 063e 4b64 2fbc 8098 2c3e 2e63 9fbf
00000350: 89f8 a0be 08a8 24be 1806 42bb d98c c4bd
00000360: e4b9 f0bd bf93 c6be 1b99 debc 5afd 23bd
00000370: 37fb 8ebc c09c f13b fd0f d4bc ae00 ba3c
00000380: 7bc0 8bbc 9799 48be 6ef9 a6be 6178 d7bd
00000390: 7b61 4c3d 67d7 0a3e b4d1 7abf 975d 2bbd
000003a0: e540 3bbd 56ec 18be 0378 1cbf 259f bdbe
000003b0: d45d a73d be04 ecbd 5b2a 9fbe 756f 893d
000003c0: 1ad2 dd3c 08d9 213d 7265 62bd fcbc babd
000003d0: 895e 1f3b 36f4 a4bd 46ae fcbd 9c5f 64be
000003e0: 348e 123e 1179 373d 0525 04bf c0b7 7e3a
000003f0: 5300 ffbe ff0d 833c d9d6 b1be 9424 28bd
